SeaFest/TFLite Models/Freshness.tflite (tflite, 197472 bytes, 21 tensors)

sequential/dense_6/MatMul f4 [1, 64]
000000 87 12 39 3d 38 aa dc bd a1 45 1c 3e 5a 4b f8 bd
       0.045183685 -0.10774654 0.15260936 -0.12123747
000010 ff ef 26 be 45 2b 25 be 63 64 12 be 6d b6 22 3d
       -0.16302489 -0.16129787 -0.14296107 0.039724756
000020 1f d2 63 3e 16 a9 5d 3d 2e 1d 28 3e 9e 95 07 bd
       0.22248124 0.05411633 0.16417381 -0.03310167
000030 d2 ae 98 bd aa d4 41 be 13 e6 96 3e 10 0b 7c be
       -0.07455219 -0.18928781 0.29472408 -0.24613595
000040 b1 ba bc bb 8f c4 0b 3e 56 0e 06 b9 79 1a 19 bd
       -0.00575956 0.136492 -0.00012784576 -0.037378762
000050 89 f8 07 be 42 7b c6 3d 23 5d 82 3e df 6f a0 3d
       -0.13278402 0.09691478 0.25461683 0.07833838
000060 d7 5c 91 3d 84 02 ff bd 8b 00 13 be 2a 82 f5 3d
       0.07097786 -0.12451652 -0.14355676 0.119877174
000070 06 b4 96 3e c2 36 00 be 3f 10 84 be e2 e5 66 be
       0.29434222 -0.12520888 -0.25793645 -0.22548631
000080 7b 97 4b be 8c 97 dc 3d 24 c1 16 3e 99 e0 25 be
       -0.19882004 0.10771093 0.14722115 -0.16198958
000090 f9 00 d5 bc 2a 0f 13 3e 98 a8 01 be 88 55 15 3e
       -0.02600144 0.14361253 -0.1266197 0.14583409
0000a0 23 7d 25 be 2a a6 7e 3c 64 3f 53 3c 88 a0 6e 3e
       -0.16161017 0.015542546 0.0128935315 0.23303425
0000b0 8d 38 28 3e b5 c2 0f be 02 67 6c 3d db 9d 89 3e
       0.16427822 -0.14039119 0.057715423 0.26878247
0000c0 a3 85 a1 bd 8d 0d 63 bc 4f e3 52 be b1 07 e1 bc
       -0.07886817 -0.013858211 -0.20594524 -0.027469488
0000d0 02 65 7b bd d7 a1 58 be 3e c7 7e 3e fb d2 95 be
       -0.061375625 -0.21155487 0.24880692 -0.29262528
0000e0 fa ce 52 be 14 53 58 3d ba f4 61 be 53 66 3f be
       -0.20586768 0.052813604 -0.22066012 -0.18691377
0000f0 8c 2f a4 bd 27 bd 82 3c 8b 00 0a 3e c5 ac 47 bd
       -0.08016881 0.015959335 0.1347677 -0.04874875

sequential/batch_normalization/FusedBatchNormV3 f4 [64]
000000 08 57 0d 3b 09 f6 1e 3a f6 7f 92 ba 8e e6 45 3b
       0.0021566767 0.0006063884 -0.0011177051 0.0030197236
000010 2c f8 80 be 57 73 17 bd ea 8c da bc 9b b6 1b c0
       -0.2518934 -0.03697523 -0.026678521 -2.4330204
000020 a7 e1 dc bf 23 d6 07 bc 0f 9f 96 3b b5 d3 a6 bf
       -1.7256364 -0.0082908 0.004596598 -1.3033358
000030 b4 d8 00 bf ea 95 11 3d d1 9f ba be db 2a b9 bf
       -0.5033066 0.03554336 -0.36450055 -1.4466203
000040 34 92 1c bf 99 5d d3 bf a0 ae be 3a ec c7 df bf
       -0.6116059 -1.6512939 0.0014547892 -1.7482886
000050 ec 2a 82 b9 6d 6b c0 bf 1c 18 3c bd ab ee c0 bf
       -0.00024827512 -1.5032784 -0.04592143 -1.5072836
000060 81 24 b9 3c 9e 4b 08 c0 7a 39 34 c0 93 f2 c5 3b
       0.022600414 -2.1296153 -2.816008 0.00604088
000070 91 37 77 3b 56 2d d6 bf 09 fd e7 bb e8 56 4c be
       0.003772233 -1.6732585 -0.0070797247 -0.19955027
000080 97 7b 53 bb 03 20 62 bb b4 7f 98 be b8 d7 04 c0
       -0.003226971 -0.0034503944 -0.2978493 -2.0756664
000090 58 6f 12 bc 50 1e 94 bf c3 7d cc bf 93 c3 b9 bf
       -0.008937679 -1.1571751 -1.597588 -1.451281
0000a0 58 ac da bf 39 a7 1c bf ad 8b b7 bf 95 0f 19 bf
       -1.7083845 -0.6119266 -1.4339501 -0.597894
0000b0 63 37 fd bf e6 60 9e bf b7 16 ec bf be a2 5a bb
       -1.9782528 -1.2373321 -1.8444432 -0.0033361162
0000c0 61 8a 34 be 18 49 85 bb 65 cb 49 3b 84 ef be 3a
       -0.17630912 -0.0040675513 0.0030791399 0.0014567231
0000d0 16 82 0a bd ae a4 1c bf 28 9c 81 bd 58 3e e7 b8
       -0.033815466 -0.6118878 -0.063286126 -0.00011026551
0000e0 0d 9f e5 be b0 1f d9 bf 45 9d c6 ba 8a 0d 3e ba
       -0.4484791 -1.6962795 -0.0015153071 -0.0007249942
0000f0 70 7b 5f bb f1 0b fa 3a aa 9e f9 bf 56 ce 18 c0
       -0.0034100674 0.0019077045 -1.9501545 -2.3875937

sequential/batch_normalization/FusedBatchNormV31 f4 [64]
000000 21 20 fb 41 47 e8 f3 41 11 3f fa 41 e8 00 f9 41
       31.390688 30.488417 31.280794 31.125443
000010 54 a8 aa 41 26 86 e6 41 4d ff f3 41 90 4d 3c 41
       21.332191 28.815502 30.499659 11.768936
000020 1c 8c be 40 b7 56 f9 41 d3 30 fa 41 8d cb 2b 41
       5.954603 31.167341 31.27384 10.737195
000030 91 d5 0e 41 b5 33 f5 41 be 4b a5 41 24 fd a9 40
       8.92714 30.650248 20.661983 5.312151
000040 02 bf d9 40 11 1b c5 40 1a b4 fa 41 b7 1f dc 40
       6.8045664 6.159554 31.33794 6.8788714
000050 72 bc fa 41 27 74 ca 40 b4 01 f7 41 4e 66 b2 40
       31.342014 6.3266788 30.875832 5.5749884
000060 86 15 fa 41 c9 a5 17 41 70 01 dc 40 f3 7c fa 41
       31.26051 9.477975 6.8751755 31.31101
000070 b4 d3 fb 41 74 b3 d3 40 7e 78 fa 41 9d 23 c7 41
       31.47837 6.615656 31.308834 24.89239
000080 c9 14 ef 41 77 17 fb 41 ee 0b 9e 41 0c 2a cf 40
       29.885149 31.386457 19.755825 6.4738827
000090 c8 af f0 41 86 16 dc 40 1f c4 ab 40 8f f0 d5 40
       30.08583 6.8777494 5.3676906 6.685615
0000a0 42 eb cd 40 a8 00 35 41 3a a6 d0 40 d5 fb 9c 40
       6.434968 11.31266 6.5202913 4.905741
0000b0 8b 8c ba 40 3d 0b b8 40 31 2e 11 41 7f d7 fa 41
       5.829656 5.751372 9.073777 31.355223
0000c0 c2 75 d5 41 1b 1e f6 41 f1 5f fc 41 98 98 fa 41
       26.682499 30.7647 31.546846 31.324509
0000d0 91 cc e9 41 2b 4a ab 40 32 ee e0 41 39 11 fb 41
       29.224886 5.3528037 28.116306 31.38341
0000e0 6c 28 4a 41 91 1f f3 40 5c f3 f9 41 4f d1 fb 41
       12.634869 7.5976033 31.243828 31.477201
0000f0 a1 52 f9 41 48 b6 fa 41 d1 e3 c3 40 99 a2 05 41
       31.165346 31.339005 6.1215596 8.352197

sequential/dense_1/BiasAdd/ReadVariableOp f4 [64]
000000 a3 59 1c bc bd 1e ab bd d9 d3 38 bd ac 5d c5 3a
       -0.009542855 -0.08355472 -0.04512391 0.0015057824
000010 db f5 2f 3c 0b 9c 97 bc 42 82 79 3c ee 42 1d bd
       0.010739769 -0.018507024 0.01522881 -0.038393907
000020 af 71 b9 bc 61 bb bf 3c 22 dc 01 bc 29 1d 16 bd
       -0.022637216 0.023404779 -0.007926019 -0.036648903
000030 54 25 1c bb 66 64 32 3d 5c ab 3d bd 87 80 7e bb
       -0.002382596 0.04355278 -0.046306 -0.0038833932
000040 c6 19 df 3c ac 66 30 bc 9a dc 19 bc ba 84 0d 3d
       0.02723397 -0.010766666 -0.009390974 0.034550406
000050 a2 b3 78 3c 7a 5e bf bd 6d af 54 3d a4 2e 75 bd
       0.015179547 -0.09344192 0.05192511 -0.059858933
000060 6a a1 b4 b9 71 15 1a bd 87 54 ce bc bd 3a 80 bb
       -0.00034452538 -0.037618104 -0.02518679 -0.003913252
000070 9c 9e 00 bd df 30 cf bb 9e d5 e5 3d b7 32 c6 bc
       -0.03140126 -0.0063229646 0.11222385 -0.024194105
000080 b6 8d 05 bc 56 f4 0e bd 42 4a ad 3c 41 d1 e7 bb
       -0.008151462 -0.034900986 0.021153573 -0.0070745056
000090 b8 c7 b9 bd 37 d2 97 bd cd e7 d8 bd 09 17 60 bc
       -0.090712965 -0.07413142 -0.105910875 -0.013677367
0000a0 16 79 4e bd 23 d2 af bc 68 7a ef 3c ff 4a e3 3c
       -0.050408445 -0.021462506 0.029233173 0.027745722
0000b0 e0 36 40 bd fc 3a f7 39 3c a8 69 bd e0 57 ec 3c
       -0.046927333 0.00047155458 -0.057045206 0.028850496
0000c0 75 63 93 3c 68 e3 9b bd d2 7d d7 ba cf c9 d1 3a
       0.01799176 -0.07611734 -0.0016440696 0.0016005578
0000d0 9b 18 50 3d 45 0f 56 bd 63 23 49 3d 9d 34 88 ba
       0.050804716 -0.052260656 0.049106013 -0.0010391657
0000e0 0c 7f 52 3c ed 26 e5 3c 03 fd 1a bd b0 82 23 3c
       0.012847673 0.027972663 -0.037838947 0.009979889
0000f0 c3 30 9c bd b3 a5 d3 3a 03 85 51 3c 73 23 e6 3c
       -0.07626488 0.0016147405 0.01278806 0.028093075

sequential/dense_2/BiasAdd/ReadVariableOp f4 [128]
000000 4b 81 f4 bb ce 59 44 3c 1f f7 23 bd 3e a5 25 3c
       -0.007461702 0.011984302 -0.040030595 0.010110198
000010 7e ac 85 3c 47 d3 34 bc d7 da 49 bd 0c d0 df 3b
       0.016317602 -0.011036701 -0.049280968 0.006830221
000020 2d ab 84 bc 0a 12 a8 bc 97 fd 41 3d 45 4d 86 3b
       -0.016194904 -0.020516414 0.047360983 0.0040985667
000030 67 4c dd 3c 68 f9 13 bb 6b 57 c1 3c 59 e6 e4 ba
       0.02701397 -0.0022579078 0.023601254 -0.0017463668
000040 c0 28 e6 3c d6 99 2b bc c2 b8 e1 bb 40 92 de bc
       0.028095603 -0.010473689 -0.00688848 -0.027169347
000050 5a 9a 03 3d 54 fc 09 3c b6 8b 14 3d e0 86 63 bc
       0.032129623 0.008421976 0.03626605 -0.013887137
000060 33 09 4f 3c c4 14 7e 3c fa 9b cc bc f4 87 ea bc
       0.012636471 0.015507881 -0.02497672 -0.02862928
000070 2d 36 88 bb dd 17 c3 bb 09 e8 35 3d a8 b3 a5 3c
       -0.004156849 -0.0059537725 0.04441074 0.020227268
000080 6a 15 92 3c bb 3a 21 3d 4b fb 6f bc 5f 20 29 3c
       0.017832477 0.03936265 -0.014647315 0.010322659
000090 af c3 cb bc 25 7c 44 bc d3 7b ae 3c 86 36 40 bb
       -0.024873583 -0.011992489 0.021299278 -0.0029329374
0000a0 eb 84 31 bd 21 14 41 3d 56 01 87 3b de 58 00 bd
       -0.04333965 0.047138337 0.0041200323 -0.03133475
0000b0 fc 19 57 3b 76 00 01 bd cd d2 dc bb b2 48 72 bd
       0.0032821884 -0.03149458 -0.0067389966 -0.05915136
0000c0 10 93 8a bb 22 ce 7b bc 23 11 16 3d ed 62 11 3d
       -0.004228957 -0.01536897 0.036637437 0.035494734
0000d0 33 b8 07 bd c7 f9 72 bd 4f 18 c2 3b af 8b 3e bd
       -0.03313465 -0.059320237 0.005923308 -0.04651993
0000e0 52 72 ab bc fe f5 0d 3d c9 82 c1 bc f6 03 7e bd
       -0.020928536 0.034658425 -0.023621934 -0.062015496
0000f0 71 a0 14 bc 42 17 9a bc df 8a 42 3d 7f df 94 bc
       -0.009071455 -0.018809918 0.04749572 -0.018172977
000100 b7 1f f5 bb ba 30 aa bd 99 7d 90 3c 55 bb 84 bc
       -0.0074805873 -0.08310075 0.017638015 -0.016202608
000110 ed 9c b6 3c e8 8b 1d bd 61 5b 10 3d bd 35 5c bc
       0.022291625 -0.038463503 0.035243396 -0.013440547
000120 65 f0 df 3b 3d 9d 43 bd 99 b2 ea bc 77 97 63 bb
       0.006834077 -0.047757376 -0.028649615 -0.0034727731
000130 03 30 2b bd c1 30 2c 3d a0 bc 3c 3c 9c 67 65 3c
       -0.041793834 0.042038683 0.011519581 0.014001753
000140 15 b9 1f bc 6a 34 3f bc a6 85 88 bc 24 4d 20 3d
       -0.009748717 -0.011670211 -0.016665291 0.039136067
000150 ce 4d b2 3a 54 7a 8f bd 56 5c 05 3d e8 f7 9e bc
       0.001360351 -0.07005754 0.03255876 -0.01940532
000160 11 ff 16 bd b3 45 c4 ba 97 79 d9 bc a8 e2 6a bd
       -0.036864344 -0.0014974385 -0.026547236 -0.057345062
000170 5a 44 4c bd a3 51 8a bd 9b b5 60 bc 8e 2c 16 bd
       -0.049869873 -0.06753852 -0.013715173 -0.036663584
000180 9d 49 4e 3b 0d 7f 04 bd 35 8b a5 3c 5e b2 e2 bc
       0.0031476982 -0.032347728 0.02020798 -0.027672943
000190 51 9a b7 bb c7 7c a0 bc 1a 47 2c bd 84 e8 bc bb
       -0.0056031127 -0.019590748 -0.042059995 -0.0057650227
0001a0 75 83 52 bc 6b 43 77 bc 84 53 08 bd e9 a9 be bc
       -0.012848725 -0.015091757 -0.03328277 -0.023274379
0001b0 83 7c 1a bd 81 cb 00 3d 02 10 85 3b 0f a3 92 bc
       -0.0377164 0.031444076 0.004060746 -0.017900018
0001c0 2d fd 02 3c d2 5c 62 bd fe 29 6d bc ec b4 89 bc
       0.007994932 -0.0552643 -0.014475344 -0.016809903
0001d0 ed d4 9d 3d 3b a1 ae 3a 2f d6 0f bd c4 77 da 3c
       0.07706628 0.0013323197 -0.03511637 0.026668437
0001e0 6c 2b 35 3d a5 17 07 bb 7b b0 09 3d fe ff ba bc
       0.044230863 -0.0020613458 0.03361557 -0.022827145
0001f0 87 d7 fe ba 2c 94 4d 3c e6 bb 18 3c b9 a5 12 bd
       -0.0019442894 0.012547534 0.009322142 -0.035802577

sequential/dense_3/BiasAdd/ReadVariableOp f4 [256]
000000 0e 1d 20 3d dd 5b 3d 3d 97 5f 23 bd 85 d9 30 3b
       0.03909021 0.046230186 -0.039886083 0.002698512
000010 33 b0 73 bd 59 c8 95 bd 0b cd 71 3d 78 da 73 3c
       -0.05949421 -0.07313604 0.059033435 0.01488363
000020 a4 a4 83 3c f4 2a 09 3a 4d 1c 39 3c 23 ce 9c 3a
       0.016069718 0.0005232536 0.011298251 0.0011963289
000030 09 60 66 bd 30 cf 47 bc 6a 3b 14 bc ea 1e 41 bd
       -0.05624393 -0.012195393 -0.009047369 -0.047148623
000040 be 09 0d 3c 46 1c a7 bc c0 e4 81 3c aa 52 8a 3d
       0.00860828 -0.020399224 0.015856147 0.06754048
000050 d9 9b 29 3d fe 0e 42 3d c0 e0 7b bd ba fa 1e 3d
       0.041408394 0.04737758 -0.061493635 0.03881333
000060 a0 f7 d5 bc 86 e8 2f 3d 11 73 55 3b dc ca 0c 3d
       -0.026119053 0.04294636 0.0032569806 0.03437315
000070 85 29 cb bc 50 d9 2b bd 55 8e c5 3c 0d 45 5a bd
       -0.024800071 -0.041955292 0.02411572 -0.05328851
000080 25 df f4 3c 66 64 ba 3c db fc d5 bc 86 a4 bb 3c
       0.02989156 0.022752952 -0.026121547 0.0229056
000090 98 f6 be 3a f0 3b 2a bd 26 56 dc 3c c8 4c fb 3a
       0.001456934 -0.041561067 0.026896548 0.0019172663
0000a0 2e 4e ac 3d f4 56 07 bd 48 9f 28 bd a7 78 1b 3d
       0.08413349 -0.03304191 -0.041167527 0.03795686
0000b0 10 84 3d 3c 81 47 0e bd 4a 15 c8 3c fe d0 ef 3c
       0.011567131 -0.03473616 0.024424214 0.02927446
0000c0 37 66 62 3c 31 e5 e6 bb 67 7d 9e bc 3c e3 81 3b
       0.013818315 -0.0070463647 -0.019346906 0.003963856
0000d0 07 cd c3 3c 2c 37 cf bc 59 62 8a ba 71 24 a4 bc
       0.023901476 -0.025294863 -0.0010557874 -0.020036908
0000e0 70 0e 43 bd 75 f5 2d bd fd 26 de bc 84 d1 9d 3d
       -0.04762119 -0.042470414 -0.0271182 0.077059776
0000f0 84 8a db 3c c1 12 5f bc 4d cc 64 3c 54 f1 8d bc
       0.026799448 -0.013615311 0.013964725 -0.017326988
000100 97 9a 3e bd 79 29 b3 3c ef 23 05 bb 74 70 36 3d
       -0.046534147 0.021870362 -0.0020315608 0.044540837
000110 78 dc 96 ba 92 21 74 bd 1c 12 d4 3c ac 78 8a bd
       -0.0011509797 -0.059602328 0.025887541 -0.067612976
000120 50 c8 71 bd 96 18 80 38 8b c4 e1 3b 92 5d 18 bd
       -0.059028924 6.108095e-05 0.006889885 -0.03719861
000130 da e9 06 3d ea 43 9b 3c 54 17 d8 bc af 25 6f 3c
       0.032937862 0.018953282 -0.026378311 0.014596387
000140 01 29 11 bc de 81 94 bc dc 10 f8 3c 5f 19 16 bd
       -0.008859874 -0.018128332 0.030281477 -0.03664529
000150 83 96 29 bc e6 b6 ef 3c 7b 61 89 3b ff 10 b6 bb
       -0.010350826 0.029262017 0.004192529 -0.0055562253
000160 13 d0 9e bc 52 af 4e 3c 47 c9 4f ba 74 7d b0 bc
       -0.019386327 0.012615042 -0.0007926416 -0.021544196
000170 0a 14 ee bb b9 10 9d bc 18 08 1f bd 57 f3 46 3d
       -0.0072655724 -0.019173013 -0.03882608 0.04857191
000180 30 24 22 bc 51 8d 2e 3d f0 46 89 3c 64 21 1c bd
       -0.009896323 0.04261524 0.016757458 -0.03811778
000190 f5 19 14 bd a0 af 18 bd 82 57 94 bd ce 99 0e bc
       -0.036157567 -0.037276864 -0.07243253 -0.008703662
0001a0 9a 0d 0b bd ac ac 07 3d 3e 00 83 ba 99 df ae bc
       -0.03394852 0.033123657 -0.0009994579 -0.021346854
0001b0 c4 2d 35 bd 3c 90 85 3c 38 ce 66 bb c3 26 57 3d
       -0.0442331 0.016304128 -0.003521813 0.0525272
0001c0 89 2b 02 bd 2d 57 01 bd ae f4 db 3c 0a b2 21 bd
       -0.0317798 -0.031577278 0.02685007 -0.039476432
0001d0 78 7d 3d bd 1b 7f 06 3d 85 90 f4 bc 48 a7 5e 3c
       -0.046262234 0.03283606 -0.029854069 0.013589688
0001e0 b1 52 e0 bc d2 b1 22 bd f4 09 0f 3d 7e 3c 17 bd
       -0.02738318 -0.039720364 0.0349216 -0.036922924
0001f0 fe 81 5a 3d ab 62 83 bd aa 10 f9 bc 9b f5 08 bd
       0.053346626 -0.06415304 -0.030403454 -0.033437353
000200 fa 93 69 bd b6 15 19 bd d0 b6 a3 3c 32 3e 19 3d
       -0.057025887 -0.03737422 0.019984633 0.03741283
000210 0f 3e b3 3c ab 63 2b bd 9a f1 28 bd f8 0f 1e bd
       0.021880178 -0.041843098 -0.041246034 -0.038589448
000220 3d fc ea 3c d1 99 09 bc e4 71 21 3d 7f 65 b3 bc
       0.02868473 -0.008398489 0.039415255 -0.021898983
000230 0d 86 a2 3c 7e 39 37 bb 22 42 80 bd 19 46 3f bb
       0.019839311 -0.0027957852 -0.06262614 -0.0029186069
000240 af d4 38 3d f3 34 97 bc 9f 28 28 bd c1 5b d1 3c
       0.045124706 -0.018457865 -0.041054364 0.025556447
000250 3b 8b 3a bd f8 72 51 bd 07 47 1e bc a9 63 a4 bc
       -0.045542937 -0.051135033 -0.009660489 -0.020067053
000260 62 04 6a bd ed 04 be 3b 7c fe 24 bc b5 19 27 bd
       -0.057133086 0.005798927 -0.010070439 -0.040796
000270 7a 61 c2 bc 42 b8 09 bd 45 fc 06 bd b1 9f 1f bc
       -0.023728121 -0.033622988 -0.032955427 -0.009742663
000280 69 7c 13 bb 90 47 c4 3c 5d b3 2d 3d 01 ac 44 bd
       -0.0022504574 0.023959905 0.042407382 -0.0480156
000290 cc b1 dd 3c ec 33 99 bc 03 89 d7 3a 41 f3 fc bc
       0.02706232 -0.018701516 0.0016444031 -0.030877711
0002a0 29 ed bd 3b 66 38 00 bd d9 03 9b bc 59 e0 e9 bc
       0.005796094 -0.031303786 -0.018922733 -0.02854936
0002b0 f8 42 28 3d 78 2f 6c bd da a6 4e bc 75 e6 1e bd
       0.04107949 -0.057662457 -0.012613023 -0.038794
0002c0 cd 6c 36 3d 6a 37 5d 3b e6 02 3b 3c 36 0f 2f bd
       0.044537354 0.0033754953 0.011414265 -0.042739116
0002d0 3f 47 4b bd 15 6f c7 3b 64 e1 11 ba a4 06 4e bc
       -0.049628492 0.00608624 -0.0005564897 -0.012574825
0002e0 9b be 97 3b a7 04 9b 3b 70 48 5d bd 2e 3e d1 bc
       0.0046308762 0.004730779 -0.05402416 -0.025542345
0002f0 52 0e 4f 3b 55 70 80 bc ff 57 a4 3b ee c8 fd 3a
       0.003159423 -0.015678564 0.0050153728 0.001936225
000300 23 76 19 bd 66 c9 ba bc c8 ed f6 3b ca 15 95 bd
       -0.03746618 -0.022801112 0.00753567 -0.072795466
000310 3a f6 f4 bc d2 74 ae bc 0b f8 da 3c cc 50 7c bc
       -0.029902566 -0.021295939 0.026729604 -0.015400123
000320 69 be 17 3b 88 37 19 3d 19 7a d4 3c 5a bd 57 bd
       0.0023154265 0.037406474 0.025937127 -0.052670814
000330 94 f8 92 3a 46 d1 46 bd f7 c1 9e bd 84 f5 07 bd
       0.0011212998 -0.048539422 -0.077518396 -0.033193126
000340 c3 96 b1 bc 1f 6c 03 3d 4d 65 5e bd 40 0d fe bb
       -0.021678334 0.032085534 -0.054295827 -0.0077530444
000350 22 e3 a3 bb 5e df 02 bd 2b 10 16 3c 64 66 12 bc
       -0.0050014416 -0.0319513 0.009159128 -0.008935545
000360 10 7a d8 bb af e9 ab 3c b9 f9 cd 3c 43 ca 80 3d
       -0.006606348 0.020985452 0.025143491 0.06288578
000370 f9 da 99 3c a4 ff 85 bc 5f 7f 6d bd 42 b9 98 bc
       0.018781172 -0.01635725 -0.0579828 -0.018643025
000380 ca a9 b9 bc 63 fd ca bb 1b 2d 33 bd 9d 0d a8 3c
       -0.02266397 -0.006194757 -0.043744188 0.020514304
000390 4b 70 d0 3c 55 a2 e1 bc b8 e0 f5 3b 4f d1 44 bc
       0.02544417 -0.027543226 0.007503595 -0.012012794
0003a0 5a 35 7c bb 4b c6 cd 3c 90 be 02 bd a9 01 04 3d
       -0.0038483948 0.025118968 -0.031920016 0.032228146
0003b0 66 9e 66 3d 4d 69 4a bd de 59 40 b9 31 fa af bc
       0.056303404 -0.04941683 -0.00018344025 -0.021481605
0003c0 8b 55 7b bc a4 a4 c9 bc 8a 63 64 bb 47 e8 ef bc
       -0.015340219 -0.02461464 -0.003484937 -0.029285563
0003d0 04 88 cb 3c 3b 71 5b bd 47 26 08 3c 0a ad 96 bc
       0.02484513 -0.053574782 0.008309907 -0.018393058
0003e0 f4 d2 d4 3a fa 87 b8 bc 0d 80 f9 bc 48 7c 3e 3d
       0.0016237185 -0.022525776 -0.030456567 0.046505243
0003f0 38 79 ed 3c 49 c6 bb 3c dc 67 a3 bc 41 e1 52 3c
       0.028988466 0.022921698 -0.019946985 0.0128710875

sequential/dense_4/BiasAdd/ReadVariableOp f4 [128]
000000 47 a8 03 bc ac ef 1c 3d e2 d8 3d bc e7 b4 81 bc
       -0.008035726 0.038314506 -0.011587353 -0.015833331
000010 de 5f 04 bd a7 23 fb 3c 9d 6a 31 bc 0f 39 48 3d
       -0.03231799 0.030656649 -0.010828641 0.04888254
000020 66 4e d4 bb aa 59 c6 bc 65 30 82 3d f6 2e 57 bb
       -0.0064790724 -0.024212677 0.06356887 -0.0032834387
000030 20 1c 5e 3d 9f fd bc 3b 24 08 da 3c 3e 6b a2 bc
       0.05422604 0.0057675387 0.02661521 -0.019826528
000040 8f 4a 65 b8 b0 3f 83 bc 2e 7c 3d 3a 98 13 07 bd
       -5.4667293e-05 -0.01602158 0.0007228282 -0.03297767
000050 f1 9e 7a 3c 51 92 32 bd 65 35 20 bd 13 0d 71 3c
       0.015296684 -0.04359657 -0.03911342 0.01471259
000060 8a b2 7a bc 00 20 23 3d cd 5a 83 bc 5a 77 1d 3d
       -0.015301356 0.03982544 -0.016034508 0.0384439
000070 ac 50 95 3c eb 3a 84 bc 9c d4 57 3b 57 6d 1f bb
       0.018226944 -0.016141376 0.0032933122 -0.0024326646
000080 78 5b 36 bd 52 9c b0 bc 2c 4a 33 b9 33 c3 16 bd
       -0.044520825 -0.021558914 -0.00017098401 -0.03680725
000090 6e 7b 1b bd d3 5e 65 3c a5 40 21 bd 36 e5 57 bc
       -0.03795951 0.013999659 -0.03936829 -0.013177207
0000a0 e9 a3 33 3c 54 6e 34 3d 7a 46 23 3d e0 11 95 3c
       0.010964372 0.04405053 0.039862134 0.018197
0000b0 ee 14 0c bd 15 9d ae bc 3a 26 f7 bc ff 5e 4e 3c
       -0.034199648 -0.021315137 -0.030169595 0.012595891
0000c0 5c 7e a0 bc 48 92 68 3c 75 51 83 bd 6b cb 33 bd
       -0.019591503 0.014195032 -0.06412021 -0.043895166
0000d0 d7 d5 25 bd cf 11 ff bc c2 69 2f 3d 84 f4 2a bd
       -0.040487137 -0.031136421 0.042825468 -0.041737095
0000e0 37 ac 3b 3d 5d 0b 24 3d 00 9d 77 bc f7 f0 24 3c
       0.045818534 0.0400499 -0.015113115 0.010067216
0000f0 bb e1 18 3d a9 1e 4f bc cb 5a 0d 3d 6b 9a ed ba
       0.03732465 -0.012641587 0.034510415 -0.0018127685
000100 8c 82 26 3d 4f d8 18 bc ab 96 1a 3d af 92 d6 bb
       0.040651843 -0.009328916 0.037741344 -0.0065482478
000110 2c 22 b2 bc e2 7f 14 bd db af 39 bb f5 d4 bc 3d
       -0.02174481 -0.03625477 -0.0028333578 0.09220306
000120 bc a0 cc 3c b9 c9 52 3d ee 8d 9f bc 61 7d 97 3c
       0.024978988 0.05146191 -0.019476857 0.018492403
000130 a2 4c 93 3c ee a9 1d 3d 70 57 66 bd 3c 5a 2e bb
       0.017980877 0.038492136 -0.05623573 -0.0026604077
000140 62 d4 4e bc 5d c7 ea 3c b6 69 5b bc 28 57 16 bc
       -0.012623878 0.028659517 -0.013391903 -0.009176053
000150 30 b0 c5 bb e2 ab a7 3b 2a 1d db 3b cb 72 9a bc
       -0.006032966 0.0051169256 0.0066868262 -0.018853566
000160 3c e2 17 bd cf 61 08 bc d9 e9 01 bd 2a b6 10 3c
       -0.03708099 -0.008324101 -0.031717155 0.008832494
000170 04 ac f3 bc f8 4b 0e bd 5a 88 30 3d 79 1d c9 3b
       -0.02974511 -0.03474042 0.043098785 0.0061375466
000180 9a 35 68 3a 01 16 8c 3a 1e 0b 08 bc 09 7c 01 bd
       0.0008858085 0.001068771 -0.008303432 -0.03161243
000190 56 43 10 3c d5 f5 af bc 8c 63 00 bd 4b 8c 81 39
       0.008805117 -0.021479527 -0.031344935 0.00024709324
0001a0 08 97 1b bd 48 cf 14 3d 8d f4 3d bd 6a 35 54 3c
       -0.03798583 0.03633049 -0.0463758 0.012952188
0001b0 48 c3 8c bc 63 c9 ab 3c cc 63 e3 bc 9f 22 33 3d
       -0.017182961 0.020970052 -0.027757548 0.04373419
0001c0 b7 b0 0c 3d 35 02 92 bc 5d d8 a3 bb bc 3c 8e 3c
       0.034348216 -0.017823318 -0.0050001577 0.017362945
0001d0 2f 0c 0a 3d 5a a5 1c 3c 1c 92 84 3c 33 aa d6 bc
       0.033703025 0.009560907 0.016182952 -0.026204204
0001e0 19 6d 31 bc de 3e 18 ba af 50 09 3d 7c e4 45 bb
       -0.010829234 -0.0005807708 0.03352421 -0.0030196002
0001f0 6e 06 f0 3c 24 a2 1b 3d ab 92 43 bc 4b cd 77 bc
       0.02929994 0.037996426 -0.011936824 -0.015124629

sequential/dense_5/BiasAdd/ReadVariableOp f4 [64]
000000 06 b0 61 bc 16 83 de b9 1b 15 07 bd b7 ff ff ba
       -0.013774877 -0.00042440806 -0.032979112 -0.0019531165
000010 cb f5 52 3d aa 20 07 bd 8b c5 8d 3d bc 80 d4 bc
       0.051503938 -0.032990135 0.06922444 -0.025940292
000020 2a 8c f3 bc 54 08 3b bc 39 1d 98 bc 43 08 8a bc
       -0.029729921 -0.01141556 -0.018568622 -0.016849643
000030 76 69 41 3d e6 fa 09 3d 19 02 b9 bb 70 56 a6 3d
       0.047219716 0.03368654 -0.005646002 0.081219554
000040 5e fd d3 bc ce cf 10 bd e5 bc 51 bd 89 a7 73 3d
       -0.02587765 -0.035354428 -0.051205534 0.059485946
000050 aa 31 98 3d 9d 56 76 bd ef 7c f7 3c 29 58 1c bd
       0.07431348 -0.060141195 0.03021094 -0.038170014
000060 4f 8a be bc e9 a2 bc bc 86 c9 b9 bc 3e de 48 bd
       -0.02325931 -0.0230269 -0.022679102 -0.04904007
000070 58 ab 62 3c 5d 01 77 3d c7 a2 9e 3d 0b 09 9b 3c
       0.013834797 0.060304035 0.07745891 0.01892521
000080 de 83 93 3d 88 bc 56 bd 12 c8 bf bb 27 10 7d bc
       0.07202886 -0.05242589 -0.0058527077 -0.015445746
000090 2e 35 5b 3d ce 4e 80 bd d2 57 87 3d 7e 68 46 bc
       0.053517513 -0.06265031 0.06608547 -0.012109874
0000a0 6b 05 93 3d fb 2b 92 bb 38 19 30 bd 32 79 83 bc
       0.07178768 -0.0044608093 -0.0429928 -0.016049001
0000b0 6b 36 9d 3c 42 84 90 3d 72 45 3a bd b9 10 c9 bc
       0.019190988 0.07056476 -0.045476384 -0.024544107
0000c0 47 58 c4 3c c8 a8 64 3d 3f 44 8b 3d f9 66 63 3d
       0.023967875 0.055825025 0.06800126 0.055518124
0000d0 ba 88 6f 3d e7 6c 6d bb 1b 22 0c bd f4 c7 99 3d
       0.058480002 -0.003622824 -0.034212213 0.07508841
0000e0 be 26 9e 3d 17 55 e3 bc 02 2b 72 3d bd 8c 6a 3d
       0.07722233 -0.027750535 0.059123047 0.057263125
0000f0 0b 39 0d 3c 2b 6a d4 bc 12 df 9d bc f7 99 20 bd
       0.008619557 -0.025929531 -0.019271407 -0.039209332

sequential/dense/BiasAdd/ReadVariableOp f4 [32]
000000 d5 f1 0e bc cd 44 a2 bc 30 ea 0e bd 34 cf e6 ba
       -0.008724649 -0.019808197 -0.034891307 -0.0017609359
000010 e7 e9 00 bc be 46 bc bc b9 88 58 bd 3b 2c 53 3d
       -0.007868267 -0.022982951 -0.052864764 0.051555853
000020 33 c9 ea 3c e3 f5 85 bc 3a e1 ae 3c db a7 5a bc
       0.028660392 -0.0163526 0.02134763 -0.013345684
000030 f2 66 9b bc 99 27 d6 3d fb 02 2d bd d8 10 01 bc
       -0.018969987 0.104567714 -0.04223917 -0.007877551
000040 19 ce 02 bd 26 34 54 bc 1e 6e dd bb 4c 20 8e bc
       -0.03193483 -0.012951886 -0.0067575118 -0.017349385
000050 6b 51 ec bc 18 6f af 3b 9a b1 28 bd 17 32 98 3b
       -0.028847417 0.0053538196 -0.041185 0.004644643
000060 8d 50 12 bc 79 e4 dd 3c ea 25 2f bc bb 8d 99 bc
       -0.008930338 0.027086483 -0.010690192 -0.01874434
000070 d2 9c 21 ba e4 c8 9e bc 0f a2 ed bb 59 9b 62 3d
       -0.00061650306 -0.019382901 -0.007251985 0.055323932

sequential/conv2d/BiasAdd/ReadVariableOp f4 [32]
000000 59 f6 e5 3b 26 7b 6c bc a9 6d f4 ba b6 2b 2e 3c
       0.0070178923 -0.014433658 -0.0018648404 0.010630539
000010 ba e5 38 3d 7c 28 47 3d 1d be 5f 3d fa 3b 4a bd
       0.04514096 0.048622593 0.054624666 -0.049373604
000020 cd f7 6d bb 5c 85 6e bc 58 dc 11 3d 84 5a 02 3d
       -0.003631103 -0.014558163 0.035610527 0.031824604
000030 74 a0 18 3d 04 bd 1e bd d0 fe 2f bc 63 a6 e1 3b
       0.037262395 -0.038754478 -0.010741904 0.00688629
000040 8a 73 01 3a 1f fc 57 3c 7d c7 5a bc ec ab ce bc
       0.0004938176 0.013182669 -0.013353226 -0.025228463
000050 43 f6 07 3b eb 48 d1 bc 75 33 5f 3c 8d 9b 04 bb
       0.0020746149 -0.025547465 0.013623108 -0.0020234317
000060 27 45 24 3d 1a d2 a8 3c 0a 08 e8 3c 5f f9 a2 3c
       0.04010501 0.020607997 0.028324146 0.0198943
000070 45 d6 77 ba 26 ce 82 3b bb a4 17 bd 7c 44 90 3c
       -0.0009454231 0.00399186 -0.037022334 0.01761078

sequential/conv2d_1/BiasAdd/ReadVariableOp f4 [64]
000000 4e 3d 48 bc 79 2b 94 bc ba 8d b7 bb 95 a9 d2 bc
       -0.012221647 -0.018087136 -0.005601612 -0.025715629
000010 31 05 cf 3d b0 f2 08 3d 1c c8 74 bb 5b 5f 3c 3d
       0.10108412 0.03343457 -0.003735072 0.045989376
000020 c1 49 c1 3d 1c 18 cc bc c0 1e a6 bc 44 9a 31 bc
       0.094378956 -0.02491384 -0.020278335 -0.010840002
000030 0b cc aa b9 6f 85 83 3c 45 ac 1e bc 1d 43 76 3d
       -0.0003257695 0.016054837 -0.009684627 0.060122598
000040 bc 9f b0 3a 41 07 cc 3d 28 f6 4e bc d7 fd 1c 3d
       0.0013475339 0.09962321 -0.01263193 0.038328018
000050 af a5 90 bc 04 c5 bf 3c fd 36 7e bc d2 84 bd 3d
       -0.01765713 0.023409374 -0.01551604 0.09253849
000060 34 cd a0 bb 5f 23 26 3d 38 ce 9f 3d 08 60 6e bc
       -0.0049072746 0.040561076 0.07803005 -0.014549263
000070 cc 5b 86 bc 0a 04 9d bc 24 a3 8f bc ff 6a 5b 3d
       -0.016401194 -0.019166965 -0.017533846 0.053568836
000080 48 36 e2 ba b1 cd 8b bc eb a4 1e 3c f2 08 59 3d
       -0.0017258609 -0.017065855 0.009682874 0.052987047
000090 99 08 d8 bc 7d cb 01 3d 5f 57 34 3d 06 04 5f 3d
       -0.026371287 0.031688202 0.044028636 0.054447196
0000a0 43 21 81 3d b1 aa 92 3c ad 65 fb 3c 59 0a 60 3c
       0.06305172 0.017903658 0.030688131 0.013674342
0000b0 19 fc 83 3d fb c0 e1 3c 93 80 04 3d 45 3e 38 bc
       0.06444568 0.02755784 0.03234918 -0.011245315
0000c0 aa 4a a7 38 d4 06 87 bc 2e d9 8e bc 2c 94 5a bc
       7.977088e-05 -0.016482748 -0.017437544 -0.013340991
0000d0 c2 d0 a3 bc b5 11 26 3c c0 47 81 3c a8 48 54 bc
       -0.019997004 0.010136058 0.015781283 -0.012956776
0000e0 64 e2 bf 3c 59 3d 8c 3d 75 68 8e bc 97 33 87 bc
       0.023423381 0.06847639 -0.017383793 -0.016504092
0000f0 47 bb 88 bc f6 9a 81 bc 20 a1 08 3e 5b 78 a5 3c
       -0.016690863 -0.015820961 0.13342714 0.020198992

sequential/conv2d_2/BiasAdd/ReadVariableOp f4 [128]
000000 b5 07 8c bc d0 ad 5b bd 91 9d 22 bd 0b bb 8e bc
       -0.017093519 -0.053632557 -0.03970105 -0.017423173
000010 82 9f 55 bc 24 df 18 bd 51 11 26 3d 61 6b 46 bd
       -0.013038518 -0.03732218 0.040543858 -0.04844225
000020 ad 1a 5a bc 69 20 b1 bd 1f 82 b7 bc 67 9a 3e bd
       -0.013312024 -0.0864876 -0.022400914 -0.04653397
000030 55 b6 ef bb 1e d4 3d bd 51 be 72 bd b3 49 fc bc
       -0.007315437 -0.04634487 -0.05926353 -0.030796861
000040 dc 3a bf bc 0d 6e 58 bb da a3 04 3d 21 84 2f 3c
       -0.023343496 -0.003302458 0.032382824 0.010712654
000050 94 11 86 bc e5 81 ab 3b 76 e3 04 3c a4 08 c6 bc
       -0.016365804 0.0052339905 0.008110872 -0.024174042
000060 91 f1 06 3b 03 8f 85 3c 58 c1 ef bc 5f 70 de bc
       0.0020590762 0.016303545 -0.029266998 -0.027153192
000070 7f 15 7d bc a1 37 d0 bc 93 cc 89 bd 93 7b 3a bc
       -0.01544702 -0.02541715 -0.067284726 -0.011382001
000080 98 fa 8a bc 36 d0 a5 3a 39 1e 0a bd a4 73 82 bc
       -0.016965196 0.0012650553 -0.03372023 -0.015924282
000090 e9 6c cc bc 09 84 62 bd 57 4b 8c bd ce 8c 4a bd
       -0.024954276 -0.0553017 -0.068503074 -0.049450688
0000a0 6e 14 e2 bc f5 25 cf bc 09 d4 0b 3c fd 5d c8 bc
       -0.027597632 -0.025286654 0.00853444 -0.02445888
0000b0 ab fd 81 bb 2f 20 80 bd d8 26 3f bc 6e 17 ef bc
       -0.003967007 -0.062561385 -0.011666976 -0.029185977
0000c0 7a be ba bc c4 79 28 3c 4f 05 ba bc 4a d7 f7 bc
       -0.022795904 0.010282937 -0.02270761 -0.030254025
0000d0 a7 d3 61 bd a9 99 7c bd 8d f6 97 bc bb 09 05 bd
       -0.055133488 -0.06166998 -0.018550182 -0.032479983
0000e0 03 76 08 bd 77 0f 3b bc 6a 20 73 bd 10 ee e2 3b
       -0.03331567 -0.011417261 -0.059357084 0.006925352
0000f0 36 8f 31 bd c8 9a 39 bc cd 7c 29 3d 29 d1 7f bc
       -0.043349467 -0.011328407 0.041378785 -0.0156138325
000100 b3 54 3d bd f6 c5 84 bc 49 09 a5 3b 05 f0 4c bd
       -0.046223354 -0.016207676 0.0050365073 -0.050033588
000110 29 b2 c9 bc ea 7b 0f bd 1a cd 97 bd 19 a2 e5 3b
       -0.024621086 -0.035030283 -0.07412167 0.007007849
000120 13 67 9e bc 3a 42 ce bc 21 c5 8e bc 22 3f 3a bd
       -0.019336259 -0.025178064 -0.017427983 -0.045470364
000130 01 da b0 bb c5 07 4e bc f2 6b 1b bd 45 a0 58 bd
       -0.005397082 -0.012575095 -0.03794474 -0.05288722
000140 6b 86 47 bd 7c 90 fb bc 9e 50 f8 bc 80 80 41 bd
       -0.048712175 -0.030708544 -0.030311879 -0.047241688
000150 d1 c4 4b 3d a4 ae 02 bd 8b 00 04 bd d4 82 90 bd
       0.049748246 -0.03190483 -0.03222708 -0.070562035
000160 d3 9a 62 bd 42 aa cf 3b b8 22 88 3c 93 fe ec bc
       -0.055323433 0.006337435 0.016618118 -0.028929984
000170 09 b9 f2 bc 26 ce e3 bc 4d f3 46 bd 3c 45 f4 3b
       -0.029629247 -0.02780826 -0.048571873 0.0074545424
000180 5d c7 4c bd b3 07 96 bc aa b1 81 3b 20 19 90 bd
       -0.049994815 -0.018314218 0.003957947 -0.07036042
000190 78 ce 27 bb 60 5e 09 3c ba 93 dc 3c 7f 9c 17 bd
       -0.0025605243 0.008384317 0.02692591 -0.03701448
0001a0 81 6a 73 bb 58 bd b0 bb 9c bb 46 bc 05 7f f3 bc
       -0.0037142339 -0.0053936653 -0.0121296905 -0.029723654
0001b0 00 0e 0f bd 14 db 68 bc 12 7b 02 3d a1 7f 1b 3d
       -0.03492546 -0.014212389 0.03185565 0.037963513
0001c0 2a ac 85 bc da 16 e2 bc 5e 52 0e bc b5 df 4f bd
       -0.016317446 -0.027598787 -0.00868663 -0.050750453
0001d0 2f 12 13 bc ae ac 5d bc 5a fc d1 3c 60 3d ab 3d
       -0.008976503 -0.01352994 0.025633026 0.08361316
0001e0 09 fc 2b bd 66 ca 35 bd ad fe 4f bd 96 bb a0 3d
       -0.041988406 -0.044382475 -0.050779987 0.07848279
0001f0 d5 18 73 bd 35 bd 19 bd f7 9e 89 bc 8f 2e 2f bd
       -0.059349854 -0.037533958 -0.016799433 -0.04276901

sequential/conv2d/Conv2D f4 [32, 3, 3, 3]
000000 59 49 d5 3d b8 42 16 be 74 03 1b bd c2 75 2a 3e
       0.104143806 -0.14673889 -0.03784509 0.16646484
000010 23 d6 d6 bd 3b 73 b0 bc ef 28 cf 3d 8b 79 c9 bd
       -0.10490062 -0.021539321 0.10115229 -0.098376356
000020 2c e7 57 bc 94 b9 01 3d 7f a6 88 bc 02 ca fe 3d
       -0.013177674 0.03167112 -0.016680954 0.12440874
000030 74 a6 29 bd 00 14 ef bd d7 78 8c 3d 2d bc 0f 3e
       -0.041418508 -0.116737366 0.06858986 0.14036627
000040 b1 87 49 bd 24 b6 32 bd 09 89 78 3c 55 69 91 bd
       -0.04920167 -0.043630734 0.0151693905 -0.071001686
000050 96 92 85 bd 39 c2 d7 3c 15 90 09 3d c3 a6 ac 3d
       -0.065221 0.02633773 0.033584673 0.08430245
000060 8a a8 d8 bd 67 56 17 bd df e6 e0 3d e2 25 fa bd
       -0.10579021 -0.036947634 0.10981535 -0.12214257
000070 cc 14 c3 3d 25 7b fe 3d b5 22 12 3d bb 10 1d 3b
       0.09525451 0.12425832 0.03567763 0.002396627
000080 98 66 a0 bb e6 25 ed 3d 71 73 2f bd 3b cd 26 bd
       -0.0048950426 0.11579494 -0.042834703 -0.040723067
000090 ea d3 21 bd 48 fc b0 bd 5f b3 99 bc ca ad d2 3d
       -0.039508738 -0.08641869 -0.018762289 0.10287054
0000a0 cb ef 77 3d f0 22 74 bd eb 18 d0 bd 88 e8 86 bd
       0.06053142 -0.05960363 -0.10161003 -0.065873206
0000b0 cc 4d 25 3c ce 3b 69 bc c8 f5 15 be 24 0b b7 3d
       0.010089349 -0.01423545 -0.1464454 0.08937672
0000c0 81 58 d8 3d e3 fa bb bd 0f fe 0a 3d 64 78 c3 bd
       0.10563756 -0.09178712 0.033933695 -0.09544447
0000d0 04 45 57 3d c1 86 e2 3b 08 e5 be 3d 45 a0 9c 3d
       0.052556053 0.0069130366 0.09321028 0.076477565
0000e0 29 06 35 3e ab 1b 32 3b 12 42 0f bd 11 0d 12 3e
       0.17678131 0.0027177136 -0.03497512 0.14262797
0000f0 45 9d 0d be d2 19 d5 3d 32 40 27 bd f8 d5 80 3d
       -0.13829525 0.104053155 -0.040832706 0.06290811
000100 da 09 ea 3c 17 1e 72 3d 15 31 fd bd 6b 7a cf 3d
       0.02856915 0.059110727 -0.12362877 0.10130771
000110 9e b7 b2 3d 41 2f 1a be 5f a3 e6 bd 2b 3e 18 bd
       0.087264284 -0.15057088 -0.11261629 -0.037168663
000120 e8 12 d5 bd 08 a5 72 bd af e4 34 bd d3 b6 c9 bc
       -0.10403997 -0.059239417 -0.044163402 -0.02462331
000130 2f e5 c5 3c 93 a0 43 3d 7f 3f e8 bd d1 f1 b1 3d
       0.024157135 0.047760557 -0.11340236 0.08688701
000140 16 ba 77 3c 62 c7 0c be 0b ef c6 bd 9f 65 3b 3d
       0.01512005 -0.13747934 -0.097135626 0.04575121
000150 55 ba fb 3d a6 bc 65 3d 83 b9 b1 bc 72 48 12 bd
       0.122913994 0.056088112 -0.021694904 -0.03571362
000160 b2 09 bb 3d 63 46 76 3d 07 23 c6 3d c5 67 0e 3d
       0.091327086 0.06012572 0.0967465 0.03476693
000170 58 49 22 3e 4f 3f 4c 3d 68 eb c3 bd ad 51 c2 bd
       0.15848291 0.049865063 -0.095663846 -0.09488235
000180 ce 5f 99 bd 2d 46 3a 3b 58 d3 47 bd ab db 2c 3d
       -0.074889764 0.0028423176 -0.048785537 0.04220168
000190 f7 5d ec 3b 26 91 3e 3d a0 ae 17 be c0 c1 53 bd
       0.00721335 0.046525143 -0.14812708 -0.051698446
0001a0 6a 68 d5 bc 3f 17 38 bd 83 c0 8c 3c 39 fb a2 3c
       -0.026050765 -0.044944044 0.01718164 0.019895183
0001b0 22 09 46 bd 21 25 74 bd 55 44 d5 bc 58 0c 51 3d
       -0.048348553 -0.05960572 -0.02603356 0.051037163
0001c0 f0 6d 9a bc 13 54 f1 3c 4b f7 c7 3c 37 36 93 3d
       -0.01885125 0.029459035 0.02440991 0.07188075
0001d0 87 68 d5 bd 99 df 13 3e 72 45 a8 3d 12 96 3f 3e
       -0.10420328 0.14440764 0.08216371 0.18709591
0001e0 4e 22 f6 3d 25 0f 26 be 4d 5e a0 bd cb 4f 11 bd
       0.12018262 -0.16216715 -0.078304864 -0.035476487
0001f0 93 d2 4b be 1c 91 01 3c 20 7f 49 bd 1e 87 d3 3d
       -0.19904546 0.007908132 -0.0491935 0.10328506
000200 51 46 8e 3d 85 17 be 3d e7 28 63 bd db ba 0d 3e
       0.069470055 0.0928183 -0.05545893 0.13840811
000210 89 34 da bd ca fa f0 bd 75 81 29 be 7f cc bf 3c
       -0.106545515 -0.11766584 -0.1655329 0.023412941
000220 2b 23 0d 3d cb de 5e bd 67 a1 29 3e 20 76 93 bd
       0.034457367 -0.05441169 0.16565476 -0.07200265
000230 af 75 80 be c7 8a 67 bd 6b 82 0d bc f6 d7 56 bc
       -0.25089785 -0.056528833 -0.008637051 -0.013113013
000240 8a dd 62 3d 0f dd 87 3d 81 98 82 be e9 56 43 bd
       0.055387057 0.066339605 -0.25506976 -0.047690306
000250 4d e2 14 be bc 63 8e be c5 19 cc 3d 30 17 0b bb
       -0.14539452 -0.27810466 0.09965853 -0.0021223538
000260 9e a5 92 be ff c6 80 3d 63 8e f4 bd 53 4e 6d be
       -0.2864198 0.062879555 -0.119412206 -0.2317441
000270 4d f5 86 3d f0 f3 0e 3e f8 0e 64 be 8e be 0c 3d
       0.06589756 0.13960242 -0.22271335 0.034361415
000280 3b 9e 09 3e 8a 28 09 be 59 75 0e bd a3 4a 9f bd
       0.13439266 -0.1339437 -0.03477988 -0.07777908
000290 72 f5 ba bd 4f 4f 60 be 8c 36 5c bd 21 e3 bd bd
       -0.09128846 -0.21905254 -0.053762957 -0.09271837
0002a0 e2 9f 9f bd d1 77 e7 bd 9d ca db bc 6c f7 1f bd
       -0.07794167 -0.1130215 -0.026830012 -0.03905432
0002b0 33 91 83 3c bf be 46 3d f8 34 50 be 3e fc 0a 3d
       0.016060447 0.048521753 -0.20332706 0.033931963
0002c0 3e eb a9 bd e6 82 2d be 05 6e 2a be 3a 4a b5 bd
       -0.08296822 -0.16944465 -0.16643532 -0.08852048
0002d0 db d0 c0 bd 6d 92 87 bd 9b 77 00 3e e9 0a 38 be
       -0.09414836 -0.066197254 0.12545626 -0.17972912
0002e0 cb 91 14 be 68 b1 b9 bc a5 14 0b 3d a1 76 c8 bd
       -0.1450874 -0.022667602 0.033955235 -0.09788252
0002f0 66 5a 20 be 85 63 6e 3c 6f 83 a1 3d c6 14 92 bd
       -0.15659484 0.0145500945 0.07886397 -0.071328685
000300 8f 8c d8 3d de cd d5 bd f0 6c 15 3b 43 e9 7e 3c
       0.105736844 -0.10439657 0.0022800528 0.015558544
000310 bc 13 3d 3d e5 9a a1 3d 61 c3 f3 3d f4 e0 3e bd
       0.0461614 0.07890872 0.119025 -0.04660125
000320 21 a6 c8 bc 0c 92 00 3e 64 f0 46 3d 7e 5d 00 be
       -0.024493279 0.12555712 0.048569098 -0.12535664
000330 db e0 51 3d 31 f6 c9 bb 08 f8 2f 3d 55 99 9f 3d
       0.05123983 -0.0061633815 0.04296115 0.07792918
000340 7b fb 7a bc be 98 88 bd a5 27 90 3d a5 0c 18 bd
       -0.015318747 -0.06669758 0.070388116 -0.037121434
000350 ca b3 02 bd 54 fb e8 bc 81 ed 54 3d d3 41 79 3d
       -0.03190974 -0.028440155 0.051984314 0.06085379
000360 37 2b 90 bc 6a 0e 58 3c d2 3e 91 3d f7 ec 44 3d
       -0.017598731 0.01318703 0.0709206 0.04807755
000370 dc d5 33 bc 86 23 91 bd 07 93 f9 bd 07 08 cf 3d
       -0.010976281 -0.07086854 -0.12186246 0.10108953
000380 a5 01 23 bd b9 03 7c 3d 8f 76 3b bd af 51 09 be
       -0.03979649 0.061526988 -0.045767363 -0.13410066
000390 af f4 cc bb 68 b1 7c 3d ad a0 42 bd 38 88 15 3c
       -0.0062547545 0.061692625 -0.047516514 0.009126715
0003a0 77 a3 7e 3d 40 7b be bc 50 09 b4 bc a8 d5 89 3c
       0.06216761 -0.02325213 -0.021977097 0.016825512
0003b0 92 0d 6f 3d c2 6c 8b 3d 61 3e 10 be bf 90 b7 3c
       0.05836255 0.06807853 -0.14086296 0.022407888
0003c0 d9 3d a0 bd 9b e6 15 be c6 df 05 be 74 2c db 3d
       -0.078242965 -0.1463875 -0.13073644 0.10701838
0003d0 62 f4 3a 3d 86 f8 a7 3d 65 8a d4 3b c4 3b 36 bd
       0.045643218 0.08201699 0.0064862245 -0.04449059
0003e0 9d 0b ec 3d ca b2 a6 3d f5 c7 4d bd b4 91 c0 bc
       0.115256526 0.0813957 -0.050239522 -0.023506977
0003f0 76 ae 93 3d 85 dc db bd 29 92 95 bd 9e c5 e8 bc
       0.0721101 -0.1073542 -0.073032685 -0.028414544

sequential/conv2d_1/Conv2D i1 [64, 3, 3, 32]
000000 91 37 44 9e 0a 0a 15 07 5b 44 e3 8c 1b 25 fd e1
       -111 55 68 -98 10 10 21 7 91 68 -29 -116 27 37 -3 -31
000010 c3 1c af 95 98 07 c6 b9 c8 e5 2f 37 22 9c 1f e4
       -61 28 -81 -107 -104 7 -58 -71 -56 -27 47 55 34 -100 31 -28
000020 dd 17 f5 a2 8c c9 d4 47 b6 52 c2 f2 4c e4 f4 e8
       -35 23 -11 -94 -116 -55 -44 71 -74 82 -62 -14 76 -28 -12 -24
000030 57 dc f1 a4 e5 3c 96 f4 9f 35 22 15 e3 c5 46 49
       87 -36 -15 -92 -27 60 -106 -12 -97 53 34 21 -29 -59 70 73
000040 4f 1e b5 9a c2 f4 b2 0b 26 3b c2 ba ed ae 95 44
       79 30 -75 -102 -62 -12 -78 11 38 59 -62 -70 -19 -82 -107 68
000050 df c5 f0 00 94 98 e3 ce bf d3 5c a7 4b a4 dd aa
       -33 -59 -16 0 -108 -104 -29 -50 -65 -45 92 -89 75 -92 -35 -86
000060 35 b2 ad cf f3 11 42 ef aa 33 47 48 f6 17 f2 dd
       53 -78 -83 -49 -13 17 66 -17 -86 51 71 72 -10 23 -14 -35
000070 ed a9 b4 1e 30 9d c4 08 a7 06 f1 30 e0 b0 c3 e0
       -19 -87 -76 30 48 -99 -60 8 -89 6 -15 48 -32 -80 -61 -32
000080 9c 2e a7 01 c8 cd 55 c2 05 25 2f 0e 36 3b e7 f0
       -100 46 -89 1 -56 -51 85 -62 5 37 47 14 54 59 -25 -16
000090 ec 2e 38 b9 a9 42 a3 9d e4 23 ee fb 37 b2 36 02
       -20 46 56 -71 -87 66 -93 -99 -28 35 -18 -5 55 -78 54 2
0000a0 ef 9c f4 01 f8 07 b4 16 a9 ff bd e3 d6 e7 3a d8
       -17 -100 -12 1 -8 7 -76 22 -87 -1 -67 -29 -42 -25 58 -40
0000b0 b6 dd 39 17 92 d9 3b ea 59 3c 51 96 49 1d cf 38
       -74 -35 57 23 -110 -39 59 -22 89 60 81 -106 73 29 -49 56
0000c0 14 a4 de f1 3d c1 36 1d 3d ee 0d 48 31 39 e5 aa
       20 -92 -34 -15 61 -63 54 29 61 -18 13 72 49 57 -27 -86
0000d0 aa 4f c3 3d d2 a0 cd b4 f5 63 c0 24 9b 36 28 17
       -86 79 -61 61 -46 -96 -51 -76 -11 99 -64 36 -101 54 40 23
0000e0 b0 4d 1a eb 96 13 df 30 38 e4 18 eb 3c 21 c6 ee
       -80 77 26 -21 -106 19 -33 48 56 -28 24 -21 60 33 -58 -18
0000f0 f6 05 ba 02 f9 4d e9 00 06 28 24 9d f2 a8 fe b1
       -10 5 -70 2 -7 77 -23 0 6 40 36 -99 -14 -88 -2 -79

sequential/conv2d_2/Conv2D i1 [128, 3, 3, 64]
000000 fd ea 2b 17 d1 f6 ea 0a 32 37 03 2a 11 ea 6c 14
       -3 -22 43 23 -47 -10 -22 10 50 55 3 42 17 -22 108 20
000010 20 f9 12 11 0f 07 18 f7 02 19 15 03 e8 07 02 ad
       32 -7 18 17 15 7 24 -9 2 25 21 3 -24 7 2 -83
000020 44 06 c1 4e 38 d6 47 f9 fc eb dc 09 36 c7 36 dd
       68 6 -63 78 56 -42 71 -7 -4 -21 -36 9 54 -57 54 -35
000030 29 cb 13 34 16 e9 4e eb 2f f0 f3 ef f9 1a 16 f2
       41 -53 19 52 22 -23 78 -21 47 -16 -13 -17 -7 26 22 -14
000040 ee 1d ff 22 f1 f3 0d 26 51 00 e7 f9 f0 e5 67 51
       -18 29 -1 34 -15 -13 13 38 81 0 -25 -7 -16 -27 103 81
000050 0a 18 f6 26 1c 1d 08 54 02 36 5d 19 db 47 e2 c7
       10 24 -10 38 28 29 8 84 2 54 93 25 -37 71 -30 -57
000060 f9 ef bb 2c d2 e0 20 d7 ea fa 09 fd ef fc 46 0f
       -7 -17 -69 44 -46 -32 32 -41 -22 -6 9 -3 -17 -4 70 15
000070 23 c8 d6 e4 11 db f2 38 15 08 f1 2a ce 3b 48 e8
       35 -56 -42 -28 17 -37 -14 56 21 8 -15 42 -50 59 72 -24
000080 1d df e2 34 3e ca 21 17 50 f9 f4 18 f8 30 02 58
       29 -33 -30 52 62 -54 33 23 80 -7 -12 24 -8 48 2 88
000090 d9 52 29 3c e8 1f e1 1d 1c e8 19 15 12 52 0e f2
       -39 82 41 60 -24 31 -31 29 28 -24 25 21 18 82 14 -14
0000a0 f6 1e c4 56 d8 c7 09 14 40 f1 31 1c 28 f5 17 db
       -10 30 -60 86 -40 -57 9 20 64 -15 49 28 40 -11 23 -37
0000b0 ef aa f0 0c d0 db 03 47 3f 07 35 3d e7 d5 f1 41
       -17 -86 -16 12 -48 -37 3 71 63 7 53 61 -25 -43 -15 65
0000c0 de d3 13 de 15 cb e2 03 2e e2 1a fb e4 36 77 33
       -34 -45 19 -34 21 -53 -30 3 46 -30 26 -5 -28 54 119 51
0000d0 dc 1a 25 20 d4 54 f2 14 16 16 2c dc dc 08 f4 c2
       -36 26 37 32 -44 84 -14 20 22 22 44 -36 -36 8 -12 -62
0000e0 ed 2b f0 4b f9 ee f9 23 0b 1a ff 03 e8 dc 17 25
       -19 43 -16 75 -7 -18 -7 35 11 26 -1 3 -24 -36 23 37
0000f0 ea f1 17 dd 0e 1a 50 e5 38 fa f4 f2 1d ed 4d fc
       -22 -15 23 -35 14 26 80 -27 56 -6 -12 -14 29 -19 77 -4

sequential/dense/MatMul i1 [32, 128] scale=0.0027938066 zero_point=0
000000 d5 ce c1 1a c4 2e 23 c8 fd 31 d3 2f d6 df d2 e2
       -0.12013368 -0.13969032 -0.17600982 0.07263897 -0.1676284 0.12851511 0.09778323 -0.15645316 -0.00838142 0.13689652 -0.12572129 0.13130891 -0.11733988 -0.092195615 -0.12851511 -0.0838142
000010 3e eb 25 e4 db 23 0b c9 1d e8 27 26 fe c8 24 d2
       0.17321602 -0.05866994 0.103370845 -0.07822658 -0.103370845 0.09778323 0.030731872 -0.15365936 0.08102039 -0.06705136 0.10895846 0.10616465 -0.005587613 -0.15645316 0.10057704 -0.12851511
000020 f3 1a fe 24 2b 07 16 05 c5 cf 06 c5 08 2b db 04
       -0.036319487 0.07263897 -0.005587613 0.10057704 0.12013368 0.019556645 0.061463743 0.013969033 -0.16483459 -0.13689652 0.01676284 -0.16483459 0.022350453 0.12013368 -0.103370845 0.011175226
000030 42 f6 cb 45 c9 ba c7 bf 2c 1c 1b 1b d0 41 0f 3f
       0.18439123 -0.027938066 -0.14807175 0.19277266 -0.15365936 -0.19556646 -0.15924698 -0.18159743 0.12292749 0.07822658 0.07543278 0.07543278 -0.13410272 0.18159743 0.0419071 0.17600982
000040 eb c2 e5 df 1c 35 e7 ed e7 0b 12 37 3b 39 ef dd
       -0.05866994 -0.17321602 -0.07543278 -0.092195615 0.07822658 0.14807175 -0.06984516 -0.053082325 -0.06984516 0.030731872 0.05028852 0.15365936 0.16483459 0.15924698 -0.047494713 -0.09778323
000050 3b f3 2a 27 f7 f6 3a cf 38 f8 04 2b ce e7 ed c1
       0.16483459 -0.036319487 0.11733988 0.10895846 -0.02514426 -0.027938066 0.16204078 -0.13689652 0.15645316 -0.022350453 0.011175226 0.12013368 -0.13969032 -0.06984516 -0.053082325 -0.17600982
000060 40 40 f2 39 c9 dd 25 1a ed 17 2b db fe d4 b1 1d
       0.17880362 0.17880362 -0.03911329 0.15924698 -0.15365936 -0.09778323 0.103370845 0.07263897 -0.053082325 0.064257555 0.12013368 -0.103370845 -0.005587613 -0.12292749 -0.22071072 0.08102039
000070 38 30 eb ba 2a c1 b4 cb 05 c8 c1 eb 05 d0 c0 ed
       0.15645316 0.13410272 -0.05866994 -0.19556646 0.11733988 -0.17600982 -0.2123293 -0.14807175 0.013969033 -0.15645316 -0.17600982 -0.05866994 0.013969033 -0.13410272 -0.17880362 -0.053082325
000080 d7 e6 07 d9 ea 24 0d d4 c1 30 d3 20 0e 3e eb 06
       -0.11454607 -0.07263897 0.019556645 -0.10895846 -0.061463743 0.10057704 0.036319487 -0.12292749 -0.17600982 0.13410272 -0.12572129 0.08940181 0.03911329 0.17321602 -0.05866994 0.01676284
000090 e7 e0 39 21 f3 3e e5 07 c9 c3 2b 31 12 d6 25 d6
       -0.06984516 -0.08940181 0.15924698 0.092195615 -0.036319487 0.17321602 -0.07543278 0.019556645 -0.15365936 -0.1704222 0.12013368 0.13689652 0.05028852 -0.11733988 0.103370845 -0.11733988
0000a0 25 11 2a cb c3 f6 14 0a d6 cd c4 17 cf db b4 ca
       0.103370845 0.047494713 0.11733988 -0.14807175 -0.1704222 -0.027938066 0.055876132 0.027938066 -0.11733988 -0.14248414 -0.1676284 0.064257555 -0.13689652 -0.103370845 -0.2123293 -0.15086555
0000b0 f4 24 3e d3 20 09 13 db b1 ee da 26 eb 1d c8 d7
       -0.03352568 0.10057704 0.17321602 -0.12572129 0.08940181 0.02514426 0.053082325 -0.103370845 -0.22071072 -0.05028852 -0.10616465 0.10616465 -0.05866994 0.08102039 -0.15645316 -0.11454607
0000c0 0b fe 1f f3 b5 0e ee 0d fd 2b e9 de 05 01 e9 09
       0.030731872 -0.005587613 0.08660801 -0.036319487 -0.2095355 0.03911329 -0.05028852 0.036319487 -0.00838142 0.12013368 -0.064257555 -0.09498943 0.013969033 0.0027938066 -0.064257555 0.02514426
0000d0 cd d4 24 c0 17 25 39 ee c1 d6 1f ec 1a 25 f0 c7
       -0.14248414 -0.12292749 0.10057704 -0.17880362 0.064257555 0.103370845 0.15924698 -0.05028852 -0.17600982 -0.11733988 0.08660801 -0.055876132 0.07263897 0.103370845 -0.044700906 -0.15924698
0000e0 ba cb df d2 10 06 e6 c0 2c f3 05 eb de 19 fd 2c
       -0.19556646 -0.14807175 -0.092195615 -0.12851511 0.044700906 0.01676284 -0.07263897 -0.17880362 0.12292749 -0.036319487 0.013969033 -0.05866994 -0.09498943 0.06984516 -0.00838142 0.12292749
0000f0 03 bc c3 e0 e4 af 00 d6 3b 13 f6 23 12 13 0f 2f
       0.00838142 -0.18997885 -0.1704222 -0.08940181 -0.07822658 -0.22629833 0.0 -0.11733988 0.16483459 0.053082325 -0.027938066 0.09778323 0.05028852 0.053082325 0.0419071 0.13130891

sequential/dense_1/MatMul i1 [64, 32] scale=0.0029951427 zero_point=0
000000 d4 ef bc 04 06 bd 0c 16 3d 50 09 36 c9 a7 c3 e8
       -0.13178629 -0.050917424 -0.2036697 0.011980571 0.017970856 -0.20067456 0.035941713 0.06589314 0.1827037 0.23961142 0.026956284 0.16173771 -0.16473284 -0.2665677 -0.1827037 -0.071883425
000010 32 bf 05 df 30 c2 4d d3 11 19 3b b0 3d 2d 4b e1
       0.14975713 -0.19468428 0.014975714 -0.09883971 0.14376685 -0.18569885 0.23062599 -0.13478142 0.050917424 0.074878566 0.17671342 -0.23961142 0.1827037 0.13478142 0.2246357 -0.092849426
000020 2d b1 d3 b7 41 2f 1d fa db cf 81 b7 1e fa 2c e4
       0.13478142 -0.23661627 -0.13478142 -0.21864542 0.19468428 0.1407717 0.08685914 -0.017970856 -0.11082028 -0.146762 -0.38038313 -0.21864542 0.089854285 -0.017970856 0.13178629 -0.083863996
000030 cd c9 0d 1e 9d ad 0b b0 db 2d c3 45 e3 3a af e4
       -0.15275228 -0.16473284 0.038936853 0.089854285 -0.29651913 -0.24859685 0.03294657 -0.23961142 -0.11082028 0.13478142 -0.1827037 0.20666485 -0.08685914 0.17371827 -0.24260657 -0.083863996
000040 da 00 2b d0 1c e4 c0 1e 1a 39 9c 29 13 0c f8 47
       -0.11381543 0.0 0.12879114 -0.14376685 0.083863996 -0.083863996 -0.19168913 0.089854285 0.07787371 0.17072314 -0.29951426 0.12280085 0.056907713 0.035941713 -0.023961142 0.21265513
000050 b0 3b 14 c8 98 d2 1e 44 02 1e ca 19 20 cd 16 20
       -0.23961142 0.17671342 0.059902854 -0.16772799 -0.31149483 -0.13777657 0.089854285 0.2036697 0.0059902854 0.089854285 -0.16173771 0.074878566 0.09584457 -0.15275228 0.06589314 0.09584457
000060 a8 f7 1e cb ce 4a e7 ea 25 e6 22 d6 d5 b2 45 36
       -0.26357257 -0.026956284 0.089854285 -0.15874256 -0.14975713 0.22164056 -0.074878566 -0.06589314 0.11082028 -0.07787371 0.10183485 -0.12579599 -0.12879114 -0.23362114 0.20666485 0.16173771
000070 18 fc 2a 22 50 a5 29 25 ba 18 c9 b1 d2 27 02 ae
       0.071883425 -0.011980571 0.12579599 0.10183485 0.23961142 -0.27255797 0.12280085 0.11082028 -0.20966 0.071883425 -0.16473284 -0.23661627 -0.13777657 0.11681057 0.0059902854 -0.2456017
000080 38 0a 42 0c d5 13 d0 23 5d 50 4c bf 03 50 fa ba
       0.16772799 0.029951427 0.19767942 0.035941713 -0.12879114 0.056907713 -0.14376685 0.10483 0.27854827 0.23961142 0.22763085 -0.19468428 0.008985428 0.23961142 -0.017970856 -0.20966
000090 09 fa 42 cf e0 37 b9 10 d5 3c 0d f2 e2 e3 df ec
       0.026956284 -0.017970856 0.19767942 -0.146762 -0.09584457 0.16473284 -0.21265513 0.047922283 -0.12879114 0.17970857 0.038936853 -0.041931998 -0.089854285 -0.08685914 -0.09883971 -0.059902854
0000a0 cb de d1 ed cf 45 3d ae ce 05 df d0 ee 9a e8 03
       -0.15874256 -0.10183485 -0.1407717 -0.056907713 -0.146762 0.20666485 0.1827037 -0.2456017 -0.14975713 0.014975714 -0.09883971 -0.14376685 -0.05391257 -0.30550456 -0.071883425 0.008985428
0000b0 fc 4d d4 23 04 d6 09 1d 14 c7 bb cf 07 2a d6 61
       -0.011980571 0.23062599 -0.13178629 0.10483 0.011980571 -0.12579599 0.026956284 0.08685914 0.059902854 -0.17072314 -0.20666485 -0.146762 0.020965999 0.12579599 -0.12579599 0.29052883
0000c0 c5 b7 f6 49 06 fc ca c2 cd 24 e8 45 38 10 0f fd
       -0.17671342 -0.21864542 -0.029951427 0.21864542 0.017970856 -0.011980571 -0.16173771 -0.18569885 -0.15275228 0.10782514 -0.071883425 0.20666485 0.16772799 0.047922283 0.044927143 -0.008985428
0000d0 d4 e2 0a fe e3 0f 49 42 e5 2e fe cd fe 08 ac dd
       -0.13178629 -0.089854285 0.029951427 -0.0059902854 -0.08685914 0.044927143 0.21864542 0.19767942 -0.080868855 0.13777657 -0.0059902854 -0.15275228 -0.0059902854 0.023961142 -0.25159198 -0.10483
0000e0 25 2c ec cd e4 f5 39 a5 0d 16 26 e2 cf 31 0b d9
       0.11082028 0.13178629 -0.059902854 -0.15275228 -0.083863996 -0.03294657 0.17072314 -0.27255797 0.038936853 0.06589314 0.11381543 -0.089854285 -0.146762 0.146762 0.03294657 -0.11681057
0000f0 d5 4c db 2c d7 fc 11 1e 0a e8 0a 45 d6 a2 4f 09
       -0.12879114 0.22763085 -0.11082028 0.13178629 -0.12280085 -0.011980571 0.050917424 0.089854285 0.029951427 -0.071883425 0.029951427 0.20666485 -0.12579599 -0.2815434 0.23661627 0.026956284
